…
Input conv Shape: torch.Size([1, 128, 32, 32])
self.conv Shape: torch.Size([1, 128, 16, 16])
self.bn Shape: torch.Size([1, 128, 16, 16])
self.act/output Shape: torch.Size([1, 128, 16, 16])
Conv end
C2f start
Conv start
Input conv Shape: torch.Size([1, 128, 16, 16])
self.conv Shape: torch.Size([1, 128, 16, 16])
self.bn Shape: torch.Size([1, 128, 16, 16])
self.act/output Shape: torch.Size([1, 128, 16, 16])
Conv end
C2f cv1 shape: torch.Size([1, 128, 16, 16])
C2f y0 chunk shape: torch.Size([1, 64, 16, 16])
C2f y1 chunk shape: torch.Size([1, 64, 16, 16])
C2f self.m : ModuleList(
  (0): C3k(
    (cv1): Conv(
      (conv): Conv2d(64, 32, kernel_size=(1, 1), stride=(1, 1), bias=False)
      (bn): BatchNorm2d(32, eps=1e-05, momentum=0.1, affine=True, track_running_stats=True)
      (act): SiLU()
    )
    (cv2): Conv(
      (conv): Conv2d(64, 32, kernel_size=(1, 1), stride=(1, 1), bias=False)
      (bn): BatchNorm2d(32, eps=1e-05, momentum=0.1, affine=True, track_running_stats=True)
      (act): SiLU()
    )
    (cv3): Conv(
      (conv): Conv2d(64, 64, kernel_size=(1, 1), stride=(1, 1), bias=False)
      (bn): BatchNorm2d(64, eps=1e-05, momentum=0.1, affine=True, track_running_stats=True)
      (act): SiLU()
    )
    (m): Sequential(
      (0): Bottleneck(
        (cv1): Conv(
          (conv): Conv2d(32, 32, kernel_size=(3, 3), stride=(1, 1), padding=(1, 1), bias=False)
          (bn): BatchNorm2d(32, eps=1e-05, momentum=0.1, affine=True, track_running_stats=True)
          (act): SiLU()
        )
        (cv2): Conv(
          (conv): Conv2d(32, 32, kernel_size=(3, 3), stride=(1, 1), padding=(1, 1), bias=False)
          (bn): BatchNorm2d(32, eps=1e-05, momentum=0.1, affine=True, track_running_stats=True)
          (act): SiLU()
        )
      )
      (1): Bottleneck(
        (cv1): Conv(
          (conv): Conv2d(32, 32, kernel_size=(3, 3), stride=(1, 1), padding=(1, 1), bias=False)
          (bn): BatchNorm2d(32, eps=1e-05, momentum=0.1, affine=True, track_running_stats=True)
          (act): SiLU()
        )
        (cv2): Conv(
          (conv): Conv2d(32, 32, kernel_size=(3, 3), stride=(1, 1), padding=(1, 1), bias=False)
          (bn): BatchNorm2d(32, eps=1e-05, momentum=0.1, affine=True, track_running_stats=True)
          (act): SiLU()
        )
      )
    )
  )
), len: 1
C3 start using c3k
Conv start
Input conv Shape: torch.Size([1, 64, 16, 16])
self.conv Shape: torch.Size([1, 32, 16, 16])
self.bn Shape: torch.Size([1, 32, 16, 16])
self.act/output Shape: torch.Size([1, 32, 16, 16])
Conv end
C3 cv1 shape: torch.Size([1, 32, 16, 16])
C3 self.m : Sequential(
  (0): Bottleneck(
    (cv1): Conv(
      (conv): Conv2d(32, 32, kernel_size=(3, 3), stride=(1, 1), padding=(1, 1), bias=False)
      (bn): BatchNorm2d(32, eps=1e-05, momentum=0.1, affine=True, track_running_stats=True)
      (act): SiLU()
    )
    (cv2): Conv(
      (conv): Conv2d(32, 32, kernel_size=(3, 3), stride=(1, 1), padding=(1, 1), bias=False)
      (bn): BatchNorm2d(32, eps=1e-05, momentum=0.1, affine=True, track_running_stats=True)
      (act): SiLU()
    )
  )
  (1): Bottleneck(
    (cv1): Conv(
      (conv): Conv2d(32, 32, kernel_size=(3, 3), stride=(1, 1), padding=(1, 1), bias=False)
      (bn): BatchNorm2d(32, eps=1e-05, momentum=0.1, affine=True, track_running_stats=True)
      (act): SiLU()
    )
    (cv2): Conv(
      (conv): Conv2d(32, 32, kernel_size=(3, 3), stride=(1, 1), padding=(1, 1), bias=False)
      (bn): BatchNorm2d(32, eps=1e-05, momentum=0.1, affine=True, track_running_stats=True)
      (act): SiLU()
    )
  )
), len: 2
Bottleneck c2f start
Conv start
Input conv Shape: torch.Size([1, 32, 16, 16])
self.conv Shape: torch.Size([1, 32, 16, 16])
self.bn Shape: torch.Size([1, 32, 16, 16])
self.act/output Shape: torch.Size([1, 32, 16, 16])
Conv end
cv1 shape: torch.Size([1, 32, 16, 16])
Conv start
Input conv Shape: torch.Size([1, 32, 16, 16])
…
Input conv Shape: torch.Size([1, 128, 16, 16])
self.conv Shape: torch.Size([1, 256, 8, 8])
self.bn Shape: torch.Size([1, 256, 8, 8])
self.act/output Shape: torch.Size([1, 256, 8, 8])
Conv end
C2f start
Conv start
Input conv Shape: torch.Size([1, 256, 8, 8])
self.conv Shape: torch.Size([1, 256, 8, 8])
self.bn Shape: torch.Size([1, 256, 8, 8])
self.act/output Shape: torch.Size([1, 256, 8, 8])
Conv end
C2f cv1 shape: torch.Size([1, 256, 8, 8])
C2f y0 chunk shape: torch.Size([1, 128, 8, 8])
C2f y1 chunk shape: torch.Size([1, 128, 8, 8])
C2f self.m : ModuleList(
  (0): C3k(
    (cv1): Conv(
      (conv): Conv2d(128, 64, kernel_size=(1, 1), stride=(1, 1), bias=False)
      (bn): BatchNorm2d(64, eps=1e-05, momentum=0.1, affine=True, track_running_stats=True)
      (act): SiLU()
    )
    (cv2): Conv(
      (conv): Conv2d(128, 64, kernel_size=(1, 1), stride=(1, 1), bias=False)
      (bn): BatchNorm2d(64, eps=1e-05, momentum=0.1, affine=True, track_running_stats=True)
      (act): SiLU()
    )
    (cv3): Conv(
      (conv): Conv2d(128, 128, kernel_size=(1, 1), stride=(1, 1), bias=False)
      (bn): BatchNorm2d(128, eps=1e-05, momentum=0.1, affine=True, track_running_stats=True)
      (act): SiLU()
    )
    (m): Sequential(
      (0): Bottleneck(
        (cv1): Conv(
          (conv): Conv2d(64, 64, kernel_size=(3, 3), stride=(1, 1), padding=(1, 1), bias=False)
          (bn): BatchNorm2d(64, eps=1e-05, momentum=0.1, affine=True, track_running_stats=True)
          (act): SiLU()
        )
        (cv2): Conv(
          (conv): Conv2d(64, 64, kernel_size=(3, 3), stride=(1, 1), padding=(1, 1), bias=False)
          (bn): BatchNorm2d(64, eps=1e-05, momentum=0.1, affine=True, track_running_stats=True)
          (act): SiLU()
        )
      )
      (1): Bottleneck(
        (cv1): Conv(
          (conv): Conv2d(64, 64, kernel_size=(3, 3), stride=(1, 1), padding=(1, 1), bias=False)
          (bn): BatchNorm2d(64, eps=1e-05, momentum=0.1, affine=True, track_running_stats=True)
          (act): SiLU()
        )
        (cv2): Conv(
          (conv): Conv2d(64, 64, kernel_size=(3, 3), stride=(1, 1), padding=(1, 1), bias=False)
          (bn): BatchNorm2d(64, eps=1e-05, momentum=0.1, affine=True, track_running_stats=True)
          (act): SiLU()
        )
      )
    )
  )
), len: 1
C3 start using c3k
Conv start
Input conv Shape: torch.Size([1, 128, 8, 8])
self.conv Shape: torch.Size([1, 64, 8, 8])
self.bn Shape: torch.Size([1, 64, 8, 8])
self.act/output Shape: torch.Size([1, 64, 8, 8])
Conv end
C3 cv1 shape: torch.Size([1, 64, 8, 8])
C3 self.m : Sequential(
  (0): Bottleneck(
    (cv1): Conv(
      (conv): Conv2d(64, 64, kernel_size=(3, 3), stride=(1, 1), padding=(1, 1), bias=False)
      (bn): BatchNorm2d(64, eps=1e-05, momentum=0.1, affine=True, track_running_stats=True)
      (act): SiLU()
    )
    (cv2): Conv(
      (conv): Conv2d(64, 64, kernel_size=(3, 3), stride=(1, 1), padding=(1, 1), bias=False)
      (bn): BatchNorm2d(64, eps=1e-05, momentum=0.1, affine=True, track_running_stats=True)
      (act): SiLU()
    )
  )
  (1): Bottleneck(
    (cv1): Conv(
      (conv): Conv2d(64, 64, kernel_size=(3, 3), stride=(1, 1), padding=(1, 1), bias=False)
      (bn): BatchNorm2d(64, eps=1e-05, momentum=0.1, affine=True, track_running_stats=True)
      (act): SiLU()
    )
    (cv2): Conv(
      (conv): Conv2d(64, 64, kernel_size=(3, 3), stride=(1, 1), padding=(1, 1), bias=False)
      (bn): BatchNorm2d(64, eps=1e-05, momentum=0.1, affine=True, track_running_stats=True)
      (act): SiLU()
    )
  )
), len: 2
Bottleneck c2f start
Conv start
Input conv Shape: torch.Size([1, 64, 8, 8])
self.conv Shape: torch.Size([1, 64, 8, 8])
self.bn Shape: torch.Size([1, 64, 8, 8])
self.act/output Shape: torch.Size([1, 64, 8, 8])
Conv end
cv1 shape: torch.Size([1, 64, 8, 8])
Conv start
Input conv Shape: torch.Size([1, 64, 8, 8])
…
self.act/output Shape: torch.Size([1, 256, 8, 8])
Conv end
SPPF cv2 shape: torch.Size([1, 256, 8, 8])
SPPF end ------------------------------------------------------------------------
C2PSA start
Conv start
Input conv Shape: torch.Size([1, 256, 8, 8])
self.conv Shape: torch.Size([1, 256, 8, 8])
self.bn Shape: torch.Size([1, 256, 8, 8])
self.act/output Shape: torch.Size([1, 256, 8, 8])
Conv end
C2PSA cv1 shape: torch.Size([1, 256, 8, 8])
C2PSA self.c : 128
C2PSA a shape: torch.Size([1, 128, 8, 8]), b shape: torch.Size([1, 128, 8, 8])
C2PSA self.m : Sequential(
  (0): PSABlock(
    (attn): Attention(
      (qkv): Conv(
        (conv): Conv2d(128, 256, kernel_size=(1, 1), stride=(1, 1), bias=False)
        (bn): BatchNorm2d(256, eps=1e-05, momentum=0.1, affine=True, track_running_stats=True)
        (act): Identity()
      )
      (proj): Conv(
        (conv): Conv2d(128, 128, kernel_size=(1, 1), stride=(1, 1), bias=False)
        (bn): BatchNorm2d(128, eps=1e-05, momentum=0.1, affine=True, track_running_stats=True)
        (act): Identity()
      )
      (pe): Conv(
        (conv): Conv2d(128, 128, kernel_size=(3, 3), stride=(1, 1), padding=(1, 1), groups=128, bias=False)
        (bn): BatchNorm2d(128, eps=1e-05, momentum=0.1, affine=True, track_running_stats=True)
        (act): Identity()
      )
    )
    (ffn): Sequential(
      (0): Conv(
        (conv): Conv2d(128, 256, kernel_size=(1, 1), stride=(1, 1), bias=False)
        (bn): BatchNorm2d(256, eps=1e-05, momentum=0.1, affine=True, track_running_stats=True)
        (act): SiLU()
      )
      (1): Conv(
        (conv): Conv2d(256, 128, kernel_size=(1, 1), stride=(1, 1), bias=False)
        (bn): BatchNorm2d(128, eps=1e-05, momentum=0.1, affine=True, track_running_stats=True)
        (act): Identity()
      )
    )
  )
), len: 1
PSABlock start
Conv start
Input conv Shape: torch.Size([1, 128, 8, 8])
self.conv Shape: torch.Size([1, 256, 8, 8])
self.bn Shape: torch.Size([1, 256, 8, 8])
self.act/output Shape: torch.Size([1, 256, 8, 8])
Conv end
Conv start
Input conv Shape: torch.Size([1, 128, 8, 8])
self.conv Shape: torch.Size([1, 128, 8, 8])
…
